models/StateLSTM.pth (torch, 809044 bytes, 9 tensors)

lstm.weight_ih_l0 f4 [512, 5]
0	0x3c6b0e58	0.014346682
1	0xbbf89b07	-0.00758684
2	0xbbe22f85	-0.0069026374
3	0x3d960d93	0.07326808
4	0xbd8d97db	-0.0691373
5	0x3cb896af	0.022532789
6	0xbd649c3e	-0.055813067
7	0xbd517375	-0.0511355
8	0x3de6984f	0.11259519
9	0xbca2bfb1	-0.019866796
10	0x3d0dc251	0.034609143
11	0x3dd3fefb	0.10351368
12	0x3de84962	0.11342122
13	0xbd02f985	-0.03197624
14	0x3e000ff0	0.1250608
15	0x3dbcd2e3	0.09219911
16	0xbc0c42b8	-0.008560829
17	0xbd4f199d	-0.050561536
18	0x3c56937c	0.013096686
19	0x39894938	0.00026185228
20	0x3d8012dd	0.06253598
21	0x3d9b55c6	0.07584719
22	0xbcd45c07	-0.025922788
23	0x3ba328cc	0.0049792286
24	0x3b24d32f	0.002515029
25	0xbdae879d	-0.0852196
26	0xbda6bbea	-0.081413105
27	0x3cc25386	0.023721468
28	0xbce95423	-0.028482502
29	0xbcd9480c	-0.026523612
30	0xbd7886f0	-0.06067556
31	0xb98c488a	-0.00026756927
32	0x3d82bd76	0.06383793
33	0x3d117a05	0.035516758
34	0xbd1e228f	-0.038607176
35	0x3c9d7224	0.019219466
36	0x3d8785fc	0.06617352
37	0xbd8aa480	-0.06769657
38	0xbd436167	-0.047700312
39	0x3d1af632	0.037832446
40	0x3d339a59	0.04384837
41	0xbd4ca254	-0.049959496
42	0x3d56f7d7	0.052482452
43	0x3d25e930	0.040505588
44	0xbd8e3baa	-0.06944974
45	0x3d3f7b87	0.046748664
46	0xbd85f560	-0.06540942
47	0x3db7e861	0.0897987
48	0x3db8bf7d	0.090208985
49	0xbd5a69fd	-0.053323735
50	0x3bff6ea3	0.0077951713
51	0x3c6790be	0.01413363
52	0xbbb76970	-0.005597286
53	0x3d8e8068	0.06958085
54	0x3ca4ca63	0.020116037
55	0x3d1eaac9	0.038737092
56	0x3b6e6a24	0.0036379183
57	0x3d18b0b1	0.03727788
58	0xbd613329	-0.05498043
59	0xbd2cd12c	-0.04219167
60	0xbcb7191d	-0.022350842
61	0x3d3c93c4	0.046039358
62	0x3da1e047	0.07904106
63	0x3c9745eb	0.018465957
64	0xbd697142	-0.056992777
65	0x3d593fa9	0.053039227
66	0x3d94e730	0.07270658
67	0x3cb44fbb	0.022010675
68	0x3ccb4539	0.024813281
69	0xbd827237	-0.06369441
70	0x3ce4185a	0.027843643
71	0xbc5a72dc	-0.013333049
72	0xbd87cc39	-0.06630749
73	0xbd776d56	-0.060407005
74	0xbd6acdfa	-0.05732534
75	0x3c54a55b	0.012978877
76	0x3df4ab3e	0.11946724
77	0xb9f19493	-0.00046077798
78	0xbc90b454	-0.017664112
79	0xbc16e78d	-0.009210479
80	0xbd990296	-0.07471196
81	0x3cb246ad	0.021762216
82	0xbdb30700	-0.087415695
83	0xbce9353a	-0.028467763
84	0x3d4e26be	0.050329916
85	0x3c81c7a8	0.015842274
86	0xbdaf355b	-0.085550986
87	0xbda137b1	-0.078719504
88	0xbcb364ac	-0.02189859
89	0xbcd0d6d7	-0.025493069
90	0xbd309cbd	-0.043118227
91	0x3d513a9f	0.051081296
92	0xbd64baea	-0.055842318
93	0x3caae98f	0.020863323
94	0xbcbdc5cb	-0.023165604
95	0xbd519a50	-0.051172554
96	0x3a3292aa	0.0006812016
97	0xbd96d5b5	-0.0736498
98	0xbd5d2fdd	-0.054000724
99	0x3d849ac4	0.06474832
100	0x3d757d61	0.059934024
101	0x3d851913	0.06498923
102	0x3ca4e24c	0.020127438
103	0xbc4b8fd0	-0.012424424
104	0x3b54b219	0.0032454787
105	0x3d60c21a	0.05487261
106	0x3dee1e0c	0.11626825
107	0xbc5d179a	-0.013494397
108	0xbcb0ba5f	-0.021573244
109	0xbd7ef062	-0.062240966
110	0xbc37f640	-0.011228144
111	0x3dd097ac	0.10185179
112	0x3dc8b435	0.09799997
113	0xbd0caaf1	-0.03434271
114	0x3d1e81c0	0.038697958
115	0x3d4fd5c6	0.05074098
116	0x3d860eaf	0.065457694
117	0x3cf4d1e2	0.029885236
118	0xbc39389c	-0.011305001
119	0x3db7cb76	0.08974354
120	0x3dc480c1	0.0959487
121	0xbd25c1fa	-0.040468194
122	0xbd07557a	-0.0330405
123	0x3cf3d3a3	0.029764002
124	0xbd156c2e	-0.03648012
125	0xbc2c3ff9	-0.010513299
126	0x3e03f7f2	0.12887552
127	0xbd35281a	-0.044227697
128	0xbc07073b	-0.00824147
129	0xbcf334fe	-0.029688355
130	0x3d4f3c77	0.050594773
131	0xbd03ff84	-0.0322261
132	0x3d7e61e2	0.062105067
133	0x3d48a656	0.048986755
134	0xbd51a343	-0.05118109
135	0x3d1ef30b	0.038806003
136	0x3dbb1817	0.09135454
137	0xbd82d8c6	-0.063890025
138	0xbb1a58f5	-0.0023551558
139	0x3d8d0090	0.06884873
140	0x3b9e2f00	0.00482738
141	0x3d026ea7	0.031843808
142	0x3d56ae0d	0.05241208
143	0xbdb4d78c	-0.08830175
144	0xbcf4a894	-0.02986554
145	0x3d8719bc	0.06596705
146	0x3db81e30	0.08990133
147	0x3daede24	0.08538464
148	0x3c7a673f	0.015283405
149	0x3dd3e498	0.10346335
150	0x3d4b5d4a	0.049649514
151	0xbd50b40c	-0.050952956
152	0xbd518d60	-0.051160216
153	0xbdaaba3e	-0.08336304
154	0x3d573b1e	0.052546613
155	0xbd02f928	-0.031975895
156	0x3d90b619	0.07065982
157	0x3d9c5a6a	0.076344326
158	0x3d95c3fe	0.07312773
159	0x3d566ed8	0.052351803
160	0xbc99a3ac	-0.018754803
161	0x3d9eb70e	0.07749759
162	0x3d46f204	0.048570648
163	0xbc13c2ec	-0.009018641
164	0x3db71427	0.08939391
165	0xbd20fd88	-0.039304286
166	0xbd48d5bc	-0.049031958
167	0x3cf0ff8d	0.029418731
168	0xbd9e9c9a	-0.07744713
169	0xbdae3e4a	-0.085079744
170	0xbd164924	-0.036690846
171	0x3d3f8494	0.046757296
172	0x3bccb487	0.0062471065
173	0x3db45cb1	0.08806742
174	0x3c50f497	0.012753627
175	0xbc07d7fc	-0.008291241
176	0x3d5a507c	0.053299412
177	0xbcfefa2c	-0.03112515
178	0x3b4c191f	0.0031142903
179	0xbd3f23f4	-0.046665147
180	0xbc9e256a	-0.01930495
181	0x3d911c26	0.07085447
182	0x3d3648b5	0.044502933
183	0xba800d5b	-0.0009769605
184	0x3d502a86	0.050821804
185	0xbcba7842	-0.022762422
186	0x3d21c651	0.03949577
187	0x3dbe5707	0.09293943
188	0x3d8992a3	0.06717422
189	0xbd2b8433	-0.041874122
190	0xbb9f836e	-0.0048679626
191	0x3df45495	0.11930195
192	0x3ca17bca	0.019712348
193	0xbcb38233	-0.02191267
194	0x3a26f437	0.00063687883
195	0xbd5d86fb	-0.054083806
196	0xbc815493	-0.015787398
197	0xbd727123	-0.059189927
198	0xbdb37259	-0.087620445
199	0xbcc1a408	-0.023637787
200	0xbb8da4f7	-0.004322644
201	0x3d4c42d5	0.049868423
202	0x3d1e337f	0.03862333
203	0x3d9d0735	0.0766739
204	0xbd553de4	-0.052060977
205	0x3d3c7e59	0.046018932
206	0xbcda8567	-0.02667494
207	0x3d41df87	0.047332313
208	0x3d0d0a08	0.034433395
209	0x3d98b1fc	0.07455823
210	0xbc103ad2	-0.008803086
211	0x3ca80ff8	0.020515427
212	0x3e01acb3	0.12663536
213	0x3dcd9a3b	0.10039183
214	0xbca534da	-0.020166803
215	0x3d973ee0	0.07385039
216	0xbd473d64	-0.04864253
217	0xbd17824f	-0.036989506
218	0x3d8876f1	0.06663311
219	0xbd73ae65	-0.059492487
220	0x3d30f529	0.043202553
221	0x3ce2c35e	0.027681049
222	0x3da1ee09	0.0790673
223	0x3d991146	0.07473998
224	0xbcfe8756	-0.031070393
225	0xbd833635	-0.064068235
226	0x3c7f1d3b	0.015570934
227	0x3d5f829d	0.054567922
228	0xbd8be468	-0.068306744
229	0x3cd95f0a	0.026534576
230	0x3c3a9116	0.01138713
231	0x3d41994d	0.04726534
232	0xbd98c0ce	-0.074586496
233	0x3d3a991e	0.04555618
234	0xbcad4902	-0.021152977
235	0xbd8b204b	-0.06793269
236	0xbdab20ea	-0.08355887
237	0x3d43ae21	0.047773484
238	0xbd2a034e	-0.041507058
239	0xbcea0a2c	-0.028569303
240	0x3d17fc6b	0.03710596
241	0x3dda9f48	0.10674912
242	0xbc927a57	-0.017880602
243	0xbc9936b7	-0.018702848
244	0x3d260a77	0.040537324
245	0x3dd3ec5d	0.10347817
246	0x3d98a448	0.07453209
247	0x3b3c90fd	0.0028772943
248	0xbcace80d	-0.021106744
249	0x3e0b4b1d	0.13602872
250	0x3dec154b	0.11527499
251	0xbc0618dc	-0.008184638
252	0x3cc3e2aa	0.023911793
253	0x3baa516b	0.005197694
254	0x3d8fa4a2	0.07013823
255	0xbd5eceee	-0.054396562

lstm.weight_hh_l0 f4 [512, 128]
0	0x3d40eb4c	0.047099397
1	0xbceeeb1a	-0.02916484
2	0x3ce78671	0.028262349
3	0x3c9a2e86	0.018821012
4	0xbccb0267	-0.024781419
5	0xbd93950c	-0.07206163
6	0xbd0fb83c	-0.03508781
7	0xbd10c77a	-0.035346486
8	0xbd19381b	-0.037407022
9	0xbc1014db	-0.008794035
10	0x3cbc40c0	0.022980094
11	0x3c21cd85	0.00987566
12	0x3d236492	0.039890833
13	0xbd3367e1	-0.04380024
14	0x3d7823eb	0.06058113
15	0xbcaf32ca	-0.021386523
16	0xbd94d04d	-0.07266293
17	0xbd760cf6	-0.060070954
18	0x3d890163	0.066897176
19	0x3d9d5830	0.07682836
20	0xbdb39b56	-0.08769862
21	0xbd10072d	-0.035163093
22	0xbd906f31	-0.07052458
23	0x3daad12b	0.08340677
24	0x3d1efc75	0.03881498
25	0x3da9a093	0.0828258
26	0x3cf3f51b	0.029779961
27	0xbdb22f57	-0.087004356
28	0x3d089a0e	0.033350043
29	0xbdadb731	-0.084822066
30	0x3d63ea93	0.05564363
31	0xbd616241	-0.055025343
32	0xbdb27fd0	-0.087157845
33	0x3d14668a	0.0362306
34	0xbd9ab4eb	-0.075540386
35	0x3ceb755c	0.028742485
36	0xbd68d418	-0.056842893
37	0xbd201cef	-0.039090093
38	0xbd0a5faa	-0.03378264
39	0x3d96b4a4	0.07358673
40	0xbc26b130	-0.010174081
41	0x3cff7b11	0.031186612
42	0x3ca6cd13	0.020361459
43	0xbd8d8f29	-0.06912071
44	0xbd8a9c1c	-0.06768057
45	0xbcb25522	-0.02176911
46	0xbcbc2a42	-0.022969369
47	0xbc90c465	-0.017671773
48	0xbcc7518e	-0.02433088
49	0x3d8e8655	0.069592156
50	0xbd97059b	-0.07374116
51	0xbd91f1a2	-0.07126166
52	0x3d996268	0.07489473
53	0xbceb3c9e	-0.028715428
54	0xbd2c7710	-0.042105734
55	0x3cc9e48e	0.024645116
56	0xbda8a573	-0.08234682
57	0x3d9a2d6e	0.07528196
58	0xbd788f91	-0.06068379
59	0x3cef617f	0.029221294
60	0x3d6612fa	0.05617044
61	0x3d7f628d	0.062349845
62	0xbc0f7c57	-0.008757672
63	0x3db2a7c4	0.08723405
64	0x3d8d60a1	0.06903196
65	0x3da07153	0.07834115
66	0xbc312d8a	-0.01081408
67	0x3d1d8c9e	0.03846418
68	0x3dae8e80	0.085232735
69	0xbdac3ba3	-0.08409812
70	0xbd8210cc	-0.0635086
71	0x3c9630aa	0.018333752
72	0xbc156c66	-0.0091200825
73	0xbbb9a00d	-0.0056648315
74	0x3d1a08ce	0.037606053
75	0x3cfbc88a	0.030735273
76	0x3d2350f0	0.03987211
77	0x3c97f104	0.018547542
78	0x3d4e9544	0.05043532
79	0x3a6ad857	0.0008958629
80	0x3c360788	0.011110194
81	0x3d76b768	0.060233504
82	0x3d83ee53	0.06441941
83	0x3d010f71	0.031508867
84	0xbc6c3e17	-0.0144191
85	0x3cff50c6	0.031166445
86	0xbd2dd96f	-0.04244369
87	0x3bf135b1	0.007361137
88	0xbda39a92	-0.07988466
89	0x3ca97ded	0.020689929
90	0x3d1b10aa	0.03785769
91	0xbbb1ac4a	-0.00542215
92	0x3d3ad77c	0.04561566
93	0xbc981db2	-0.018568847
94	0x3d258897	0.040413465
95	0xbd7a1fec	-0.0610656
96	0x3c0d22ae	0.008614225
97	0x3d1058bf	0.035240885
98	0x3c185255	0.009296973
99	0xbc994d22	-0.018713538
100	0xbd55e4b1	-0.05222005
101	0xbda4b0b5	-0.08041517
102	0xbc5b0422	-0.013367685
103	0xbccc1424	-0.024911948
104	0x3d37d403	0.044879925
105	0x3daa47c2	0.08314468
106	0x3d9fe69f	0.07807659
107	0x3d785fe1	0.060638312
108	0x3c2f540b	0.01070119
109	0xbcb64f3c	-0.022254579
110	0xbd2e78ee	-0.042595796
111	0x3c4898b3	0.012243438
112	0xbc925312	-0.017861877
113	0xbbfc03ce	-0.0076908832
114	0xbd83fbba	-0.064444974
115	0xbd0974af	-0.033558544
116	0xbda44e72	-0.08022775
117	0xbd87a0e4	-0.06622484
118	0xbd871d8c	-0.065974325
119	0x3cbbc6b0	0.02292189
120	0xbbe531f4	-0.0069944803
121	0xbd856127	-0.06512671
122	0x3d321768	0.043479353
123	0xbc8d464d	-0.017245436
124	0x3c825174	0.01590798
125	0x3c9948c8	0.018711463
126	0x3d7ee59a	0.062230684
127	0x3c10034f	0.008789851
128	0xbada559c	-0.0016657594
129	0x3cf20813	0.029544866
130	0xbd3ab43e	-0.04558205
131	0x3ced7998	0.028988644
132	0x3d4f3db4	0.050595954
133	0x3da49c90	0.080376744
134	0xbd427db5	-0.047483165
135	0x3d24c609	0.040227924
136	0x3d3433e4	0.0439948
137	0x3dad9030	0.08474767
138	0x3ca1e0c4	0.019760497
139	0x3cc4023e	0.02392685
140	0x3d1fcc64	0.03901328
141	0x3b852423	0.0040631457
142	0x3c9e9e67	0.019362641
143	0x3be4b56a	0.006979634
144	0xbda39378	-0.07987112
145	0x3d9a2a19	0.07527561
146	0x3d6c4cb8	0.057690352
147	0x3d2d27b8	0.042274207
148	0xbd3d0e30	-0.04615611
149	0x3ad1a458	0.0015994413
150	0x3d4278fb	0.047478657
151	0x3bd2bebe	0.0064314296
152	0xbd637dc1	-0.05553985
153	0x3cc1a2dc	0.023637228
154	0xbd7f5173	-0.062333535
155	0x3d5c6f7f	0.05381727
156	0x3c5900f6	0.013244858
157	0x3cd002ff	0.025392054
158	0xbcc73813	-0.02431873
159	0xbd6c3176	-0.057664357
160	0xbd843d55	-0.06457011
161	0xbdae8bd4	-0.08522764
162	0x3bb14962	0.0054103592
163	0x3daf3b81	0.08556271
164	0x3c270c45	0.010195796
165	0x3d9b56d7	0.07584923
166	0x3d8e7559	0.06955976
167	0x3d5a4353	0.05328686
168	0x3cb6317e	0.022240397
169	0x3d5d27a4	0.053992882
170	0xbd38fdbc	-0.045163855
171	0xbd3ca9e9	-0.046060476
172	0xbd15d72c	-0.036582157
173	0xbc68c7dd	-0.014207807
174	0xbdb00c2b	-0.08596071
175	0x3d6613a7	0.056171086
176	0x3d62150e	0.05519586
177	0xbd086f9e	-0.03330957
178	0xbdb3f4cd	-0.087869264
179	0x3d7ecc47	0.062206533
180	0x3da77a64	0.08177641
181	0x3cd78eb3	0.026313161
182	0xbb898405	-0.004196646
183	0xbc08fea4	-0.008361492
184	0xbb8de824	-0.004330652
185	0x3dae9b8d	0.08525763
186	0xbb8a9ca7	-0.0042301
187	0x3cf612dc	0.03003829
188	0xbd8d2b7a	-0.06893058
189	0x3d596ec3	0.053084146
190	0xbd5871c0	-0.052842855
191	0xbcde0407	-0.02710153
192	0x3d783ae7	0.06060305
193	0xbd54ac62	-0.05192221
194	0x3ce6ef2a	0.028190214
195	0x3d366abc	0.044535384
196	0x3d168505	0.03674795
197	0x3d96c565	0.07361869
198	0xbc2041b7	-0.009781293
199	0xbd892b56	-0.06697719
200	0xbd25e31f	-0.040499803
201	0x3ccdb41f	0.025110302
202	0x3d15c905	0.03656866
203	0xbc8f357f	-0.017481564
204	0x3da57322	0.080786005
205	0xbc072a67	-0.008249856
206	0xbcf72a53	-0.030171549
207	0xbdb0038b	-0.08594426
208	0xbd8b2663	-0.06794431
209	0xbcf9cb22	-0.03049237
210	0x3d3cf897	0.04613551
211	0xbda35beb	-0.07976516
212	0x3d8c7919	0.06859035
213	0x3bfe87a0	0.0077676326
214	0xbd5d6ef3	-0.054060888
215	0x3bdacfc3	0.006677599
216	0xbd7598e5	-0.059960265
217	0x3c581682	0.01318896
218	0x3cd1d22c	0.025612913
219	0x3cb04a73	0.021519875
220	0xbcf0c08e	-0.029388692
221	0x3d4c6dbf	0.04990935
222	0xbc377f2e	-0.011199756
223	0x3c354b2c	0.011065286
224	0xbdabbfdc	-0.08386204
225	0xbd9e0289	-0.07715327
226	0xbcb34ad5	-0.021886269
227	0x3d21c571	0.039494935
228	0x3cf15d22	0.029463354
229	0xbd6e9d1c	-0.0582553
230	0xbd1c2b9e	-0.038127534
231	0x3cb91d80	0.022597075
232	0x3ca4c11b	0.020111611
233	0xbb609406	-0.0034267916
234	0xbcde648c	-0.027147554
235	0x3b2b6bc1	0.0026156756
236	0xbd819175	-0.06326572
237	0xbd1b41b0	-0.03790444
238	0x3d3facd3	0.046795677
239	0xbd6885eb	-0.05676834
240	0x3d1a1161	0.03761423
241	0x3c1720af	0.009224101
242	0x3db3a149	0.08770997
243	0x3d5eaf83	0.0543666
244	0x3a605d93	0.00085588655
245	0xbcf54bf1	-0.029943438
246	0xbda79f52	-0.08184685
247	0x3d652227	0.055940773
248	0xbd1c8c31	-0.038219634
249	0x3d07ffaf	0.033202823
250	0x3ab4f9fd	0.0013807412
251	0x3d01029d	0.031496633
252	0x3d7ad61a	0.06123934
253	0x3da33006	0.07968144
254	0x3c6f9e4f	0.014625146
255	0x3c9e71db	0.0193414

lstm.bias_ih_l0 f4 [512]
0	0xbc5f3f49	-0.013625928
1	0x3ce2dc08	0.02769281
2	0x3d9f1fb6	0.0776972
3	0xbd777e17	-0.060422983
4	0xbba4e4dc	-0.005032165
5	0xbdb3218e	-0.087466344
6	0xbcf4cc77	-0.029882653
7	0x3c953033	0.01821146
8	0xbcc7664a	-0.024340767
9	0xbc3f1e9f	-0.0116650155
10	0x3d9e8afe	0.077413544
11	0x3d2e0faa	0.042495407
12	0xbd30d496	-0.043171488
13	0xbc00efca	-0.00786967
14	0x3d526be4	0.051372424
15	0xbcbf284f	-0.02333465
16	0xbd3c06a4	-0.04590477
17	0x3d6fe2dd	0.058565963
18	0xbdad2175	-0.08453647
19	0x3d836a5e	0.06416772
20	0xbcb4534d	-0.022012377
21	0xbc98b5e4	-0.01864142
22	0x3d8654fc	0.06559178
23	0x3c2107c9	0.009828516
24	0x3c546059	0.012962424
25	0x3d1e7d8c	0.03869395
26	0x3d1b178f	0.037864264
27	0xbc9f322d	-0.019433105
28	0xbda41add	-0.08012936
29	0x3bef1ea4	0.007297354
30	0x3a956987	0.0011399247
31	0xbd73622f	-0.059419807
32	0x3b2df374	0.0026542814
33	0xbd0bd99f	-0.034143087
34	0xbd3e5faa	-0.04647795
35	0x3c9297e7	0.017894698
36	0xbd6eb799	-0.05828056
37	0x3dd8014c	0.10547122
38	0x3dbbc86c	0.09169087
39	0x3d0ef54e	0.03490191
40	0x3d07cc22	0.03315366
41	0x3da233cd	0.079200365
42	0xbd0f926e	-0.035051756
43	0x3c189cb6	0.009314707
44	0x3d966e22	0.07345225
45	0xbd7be2f2	-0.06149573
46	0x3d7fe623	0.062475335
47	0x3999a147	0.00029302595
48	0x3d7abcd1	0.061215226
49	0x3d28d473	0.041218232
50	0x3d73e1e2	0.05954159
51	0x3da5cbd7	0.0809552
52	0xbd7507ac	-0.05982177
53	0x3de1b9fd	0.110218026
54	0x3c586757	0.013208232
55	0xbd65f8be	-0.056145422
56	0xbd1ef191	-0.038804594
57	0xbcfb6916	-0.030689757
58	0x3d3fa525	0.046788353
59	0x3ce4f678	0.027949557
60	0x3e10ffcf	0.14160083
61	0xbd9c52be	-0.07632969
62	0xbd89a40f	-0.06720745
63	0x3da2631e	0.07929061
64	0x3ced2b68	0.028951362
65	0x3d81654b	0.06318148
66	0xbd7ab487	-0.06120732
67	0x3d42d467	0.047565844
68	0x3d71ad22	0.059003003
69	0xbd0c02e9	-0.034182463
70	0xbd69c31b	-0.057070833
71	0x3dd31767	0.10307198
72	0x3c86a9dc	0.016438417
73	0x3cf20fad	0.02954849
74	0x3b6399db	0.0034729156
75	0xbcd3f223	-0.025872296
76	0xbcd7032e	-0.026246633
77	0xbcece536	-0.02891789
78	0x3d6a8bdc	0.057262287
79	0xbbd2fba5	-0.00643869
80	0xbdb3e55a	-0.0878398
81	0x3e35fe1d	0.17772718
82	0x3d84d429	0.06485779
83	0xbb3cf0c1	-0.0028830024
84	0x3e00cd29	0.12578262
85	0xbccb4a39	-0.024815666
86	0x3d8933e6	0.06699352
87	0xbd8cd78d	-0.068770505
88	0x3dd61fb6	0.10455267
89	0xbd52a348	-0.05142525
90	0xbd0ee223	-0.03488363
91	0x3dd7c873	0.105362795
92	0x3bcd6b5b	0.0062689013
93	0x3dacc7e6	0.08436565
94	0x3d8166e6	0.063184544
95	0xbd3afbbd	-0.045650233
96	0xbd98919f	-0.0744965
97	0xbd3c7921	-0.046013955
98	0x3dab7fa0	0.08373952
99	0x3d86dfad	0.065856315
100	0x3d0dcc8d	0.034618903
101	0x3dbe2f3e	0.092863545
102	0xbbc01270	-0.005861573
103	0xbc075d90	-0.008262053
104	0x3b9a1528	0.004702229
105	0x3ce6772d	0.028133
106	0x3d8242f5	0.06360427
107	0xbc204b87	-0.009783632
108	0xbd820f96	-0.06350629
109	0xbc2b587c	-0.010458108
110	0x3d9df815	0.077133335
111	0xbda811b5	-0.08206502
112	0x3c777f81	0.015106083
113	0x3d8da84b	0.06916865
114	0x3deff3a1	0.117163904
115	0xbd35dbfa	-0.04439924
116	0xbd282fbf	-0.04106116
117	0x3d8193fb	0.06327053
118	0x3de553fb	0.11197659
119	0x3de4ab79	0.11165518
120	0x3da94c91	0.08266557
121	0x3c024cf1	0.007952915
122	0x3d893b5d	0.06700776
123	0x3d9dde03	0.07708361
124	0xbd45af76	-0.048263036
125	0x3e05b64e	0.13057825
126	0x3bdde78b	0.006771987
127	0x3d726edc	0.059187755
128	0x3d8d88c9	0.06910855
129	0x3d83ad39	0.06429524
130	0xbd5f9b7f	-0.054591652
131	0x3d8f2db9	0.06991143
132	0x3d91222f	0.07086598
133	0xbc120988	-0.008913405
134	0x3ce7c965	0.028294275
135	0x3b5244ae	0.0032084393
136	0xbd0ab13f	-0.03386044
137	0x3c98ea89	0.018666523
138	0xbc393b06	-0.011305576
139	0x3d977956	0.0739619
140	0x3d95c180	0.07312298
141	0xbd88f104	-0.06686595
142	0xbda8d9fa	-0.08244701
143	0x3da8918f	0.08230888
144	0x3da6d035	0.08145181
145	0xbc004620	-0.007829219
146	0xbdafd1cb	-0.08584937
147	0x3cc1a4a0	0.02363807
148	0xbd155212	-0.03645522
149	0x3d9b8c3e	0.075951084
150	0x3cd43cfb	0.025907984
151	0x3d89c922	0.06727816
152	0xbd79e87e	-0.061012737
153	0xbd171a3e	-0.03689026
154	0x3c249b0e	0.010046734
155	0xbcee7509	-0.029108541
156	0xbcadd5b3	-0.021220064
157	0xbcf54019	-0.02993779
158	0xbd388a03	-0.045053493
159	0x3db11f7a	0.08648582
160	0xbdb0dc28	-0.086357415
161	0xbd8f9a9d	-0.07011912
162	0x3d8feeaf	0.07027947
163	0x3d4e930f	0.050433215
164	0x3da62a9d	0.081135966
165	0xbdaf07ac	-0.08546385
166	0x3d2f4e1a	0.042799093
167	0xbc1492f7	-0.009068242
168	0x3bb848d6	0.005623917
169	0xbd4ab217	-0.049486246
170	0xbd947a19	-0.07249851
171	0x3b027f42	0.0019912277
172	0xbd9de42b	-0.07709535
173	0x3d9d2d57	0.076746635
174	0xbcf6e00e	-0.030136134
175	0x3d85a288	0.06525141
176	0xbcb7f5ff	-0.022456167
177	0x3a9887da	0.0011637167
178	0x3d9236f8	0.07139391
179	0x3cc63cad	0.024198854
180	0xbd6a95a1	-0.057271603
181	0x3d6d0dac	0.057874367
182	0xbd298e48	-0.041395456
183	0xbd713531	-0.058888618
184	0x3d7f75c9	0.062368188
185	0x3d204a86	0.03913357
186	0xbd0449af	-0.032296833
187	0xbd401171	-0.046891633
188	0xbd587a2e	-0.052850895
189	0x3d84d338	0.06485599
190	0x3ce4a839	0.027912246
191	0xbd8f151c	-0.06986448
192	0xbb5e423b	-0.0033913988
193	0x3a2f2e20	0.00066825934
194	0x3d271d43	0.04079939
195	0x3bd8e863	0.0066194995
196	0x3ca69eea	0.020339448
197	0x3b95a191	0.0045663794
198	0x3d50c223	0.050966393
199	0xbd5cbdb5	-0.053891856
200	0x3c39d175	0.011341442
201	0x3d154b82	0.036448963
202	0x3c1d1ac6	0.009588903
203	0x3badfa9f	0.0053094174
204	0x3d7ef72e	0.062247448
205	0x3d906bb9	0.070517965
206	0xbd942e1e	-0.07235359
207	0x3b4d64fd	0.0031340711
208	0xbd51839b	-0.0511509
209	0x3d905f91	0.07049478
210	0x3c84ab77	0.016195042
211	0x3da4ca02	0.080463424
212	0x3b8a919a	0.004228783
213	0x3cc91e20	0.024550498
214	0xbd7e503a	-0.06208823
215	0x3d159479	0.036518548
216	0xbd81d250	-0.06338942
217	0xbd648c04	-0.05579759
218	0xbdafca48	-0.08583504
219	0xbcf7bf91	-0.030242713
220	0x3d1cf9c3	0.03832413
221	0x3d808aab	0.06276449
222	0x3d1115d8	0.035421222
223	0xbda6ca33	-0.08144035
224	0x3da73814	0.08164993
225	0xbcde1653	-0.027110254
226	0xbd4431ed	-0.047899175
227	0xbd43edb9	-0.047834132
228	0xbc422d08	-0.011851557
229	0x3db2350e	0.08701526
230	0xbcf9429e	-0.030427273
231	0xbda6f005	-0.08151249
232	0xbd96dee7	-0.07366734
233	0xbd6231e4	-0.05522336
234	0x3d96f004	0.07369998
235	0xbd665c8d	-0.056240607
236	0xbd8b9064	-0.0681465
237	0x3ccc48b0	0.024937004
238	0xbd05afa3	-0.032638203
239	0xbd4a542e	-0.049396686
240	0x3d30dc14	0.043178633
241	0xbd4b44d4	-0.049626186
242	0x3cdeddcb	0.027205369
243	0xbd1e2111	-0.038605753
244	0xbc899612	-0.016795192
245	0x3dacbee6	0.084348485
246	0xbd549b01	-0.051905636
247	0xbd8f5e74	-0.070004374
248	0x3d3ea496	0.04654368
249	0xbdb1edb2	-0.08687915
250	0xbc198f07	-0.009372479
251	0x3d1e5964	0.03865947
252	0x3cc66835	0.024219612
253	0x3cf788ca	0.030216593
254	0xbdb02740	-0.08601236
255	0xbca4b297	-0.02010469

lstm.bias_hh_l0 f4 [512]
0	0x3d49579f	0.049155828
1	0x3c47bbdf	0.012190788
2	0x3e21030e	0.15723822
3	0x3c5c608d	0.013450754
4	0xbd5bf6fa	-0.053702332
5	0xbd30436f	-0.04303306
6	0x3d7126e5	0.058874983
7	0x3d99b1aa	0.0750459
8	0x3d37b860	0.044853568
9	0xba1f8609	-0.00060853414
10	0x3dac6498	0.08417624
11	0xbb0732e4	-0.0020629698
12	0x3d0c7f8a	0.03430132
13	0x3b3519cf	0.0027633791
14	0x3c5f28e7	0.013620592
15	0x3d9f0d16	0.07766168
16	0x3c0e41cf	0.008682682
17	0xbb944c7e	-0.00452572
18	0xbcfb4fb1	-0.030677648
19	0xbdb253cf	-0.087073915
20	0x3ddf557b	0.10904976
21	0xbdad019c	-0.084475726
22	0x3db6bae1	0.08922363
23	0xbd512223	-0.051057946
24	0xbd21eb4e	-0.039531045
25	0xbd13dfd9	-0.03610215
26	0x3cc7000f	0.02429202
27	0xbd7cecfc	-0.061749443
28	0x3c5f1235	0.013615181
29	0x3df8eb60	0.12154269
30	0x3d793031	0.060836975
31	0x3d4ab263	0.04948653
32	0xbd142c3e	-0.036175005
33	0x3dabf552	0.083964005
34	0xbd034ace	-0.03205376
35	0x3d831ae9	0.06401617
36	0x3d66a4d9	0.056309555
37	0x3d76c1cd	0.060243417
38	0x3dea10be	0.114289746
39	0xbd88d8e3	-0.06681993
40	0x3cc19512	0.023630653
41	0x3d745a36	0.059656344
42	0x3dea19c3	0.11430695
43	0x3a2e3db6	0.0006646769
44	0xbd91ecc7	-0.0712524
45	0xbc8160bd	-0.015793199
46	0x3c674125	0.014114653
47	0x3c6a4de1	0.014300794
48	0x3d2124a5	0.039341588
49	0x3bcc3369	0.0062317145
50	0x3d846c33	0.0646595
51	0x3c4179aa	0.011808792
52	0x3d1e8f30	0.038710773
53	0xbd5a26f3	-0.0532598
54	0x3dad04bb	0.08448168
55	0x3da05900	0.078294754
56	0x3c8f8cb9	0.017523156
57	0x3d5d8793	0.05408437
58	0x3d96d948	0.07365662
59	0x3d82e635	0.06391565
60	0x3d39f182	0.045396335
61	0x3d366cf2	0.044537492
62	0x3db26aef	0.08711802
63	0xbd15c76e	-0.036567144
64	0x3d26cb25	0.040721077
65	0x3d7d6002	0.06185914
66	0x3b7ffabd	0.0039059364
67	0x3bd659f1	0.0065414836
68	0x3d3e0547	0.04639175
69	0x3dad1459	0.08451147
70	0x3caa4c93	0.020788467
71	0xbd8ace15	-0.06777588
72	0x3c364c1e	0.011126546
73	0xbc54de55	-0.012992461
74	0x3d6caf65	0.057784457
75	0x3d6ba021	0.057525758
76	0xbcd7b784	-0.026332624
77	0xbbadc361	-0.005302832
78	0xbcdb9cfa	-0.02680825
79	0xbd32516f	-0.043534692
80	0x3d72da87	0.059290435
81	0x3e11aac5	0.142253
82	0xbd89f623	-0.067364
83	0xbb76aba4	-0.0037638927
84	0x3da217b1	0.07914675
85	0x3d8aa0ba	0.067689374
86	0x3db0e125	0.08636693
87	0xbce5e94b	-0.028065344
88	0x3ca9a921	0.02071053
89	0x3d15ea93	0.03660066
90	0xbc90d5da	-0.017680097
91	0x3da0943b	0.07840773
92	0xbcb82f84	-0.022483595
93	0x3d60bd5e	0.054868095
94	0xbd087d8f	-0.033322867
95	0xbd3e2333	-0.046420287
96	0xbd844bd9	-0.06459779
97	0xbcbb0135	-0.022827724
98	0x3d69ad16	0.057049833
99	0x3d67c649	0.056585584
100	0xbd86a14a	-0.06573732
101	0x3d5e3fdb	0.054260116
102	0xbc93c40c	-0.018037818
103	0xbd1c11f3	-0.038103055
104	0xbd87d61a	-0.066326335
105	0x3d7f5c30	0.062343776
106	0x3c423283	0.011852863
107	0xbace3c7b	-0.0015734577
108	0x3d8ec54a	0.06971224
109	0xbdb2baca	-0.087270334
110	0xbd5083bc	-0.05090688
111	0x3c87391e	0.016506728
112	0xbc8f69b9	-0.017506467
113	0x3d2cc98d	0.0421844
114	0x3d9bd88d	0.07609663
115	0xbca26a5d	-0.019826109
116	0x3ddb9ea5	0.107236184
117	0x3d327957	0.04357275
118	0x3cf5ad8f	0.029989986
119	0x3d118921	0.035531167
120	0xbd9e5d40	-0.0773263
121	0xbd2e56d9	-0.042563293
122	0x3d78ad7c	0.060712323
123	0xbc57be1f	-0.013167887
124	0xbd477956	-0.0486997
125	0x3e0775e8	0.13228571
126	0x3d1e97fe	0.03871917
127	0xbc58a4ec	-0.013222914
128	0x3cf4863d	0.029849166
129	0xbd9444d4	-0.072396904
130	0x3d4324ac	0.047642395
131	0xbdacd2c2	-0.08438636
132	0xbd84d7b3	-0.06486454
133	0x3d1f99e3	0.038965117
134	0x3da95f53	0.08270135
135	0xbd61233f	-0.054965254
136	0x3c42a1cb	0.011879395
137	0x3d41fd67	0.047360804
138	0x3d7fd270	0.06245655
139	0x3c4120f3	0.011787641
140	0xbd89c72f	-0.067274444
141	0xbb8d07fd	-0.004303931
142	0xbccc51f8	-0.02494143
143	0xbd45f1db	-0.048326354
144	0xbda02c3e	-0.078209385
145	0xbda7e268	-0.081974804
146	0xbd692e13	-0.056928705
147	0xbd5f855b	-0.054570537
148	0x3dae548b	0.08512219
149	0xbc708e5f	-0.014682381
150	0x3b9d018a	0.0047914432
151	0x3c94bece	0.018157389
152	0x3d9dec41	0.077110775
153	0x3cbeb58c	0.023279928
154	0x3d372a7e	0.044718258
155	0xbd1b5a18	-0.037927717
156	0x3d7c6b1e	0.061625592
157	0xbd993dd9	-0.074825
158	0xbc9190cb	-0.017769238
159	0x3d03efcb	0.032211106
160	0xbdab6c4d	-0.08370266
161	0xbdb1234b	-0.0864931
162	0xbccbd5b2	-0.024882171
163	0xbd9b3b43	-0.07579663
164	0xba323249	-0.0006797654
165	0x3d043ee7	0.03228655
166	0x3c8c6763	0.017139142
167	0xbbbe9a9c	-0.0058167707
168	0x3d815d57	0.06316631
169	0x3c805089	0.015663402
170	0x3d891841	0.06694079
171	0xbcf3efbd	-0.029777402
172	0xbda3a7f7	-0.07991021
173	0x3d0e1cc4	0.0346954
174	0xbd285ff8	-0.041107148
175	0xbbe1ac0a	-0.0068869637
176	0x3bf1923b	0.0073721684
177	0x3d89af1e	0.06722854
178	0xbbd94b1e	-0.006631269
179	0xbd660dd1	-0.05616552
180	0xbd471ee5	-0.048613448
181	0xbd603c27	-0.054744866
182	0xbd92b311	-0.071630605
183	0x3d3c5748	0.045981675
184	0xbd9f97ce	-0.07792626
185	0xbc8cbea6	-0.017180752
186	0xbd924794	-0.07142559
187	0x3d5ec484	0.05438663
188	0xbd13dce2	-0.036099322
189	0xbce0441f	-0.027376233
190	0xbcb3500c	-0.021888755
191	0xbd57835d	-0.052615512
192	0xbda4c5b7	-0.080455236
193	0x3d8d1a1b	0.06889745
194	0xbd43f427	-0.047840264
195	0xbcc71cbe	-0.024305698
196	0xbd1dd806	-0.038536094
197	0x3d05a910	0.032631934
198	0xbcf91cfd	-0.03040933
199	0xbd74ba55	-0.059748013
200	0x3cd20d32	0.025641058
201	0xbbbab662	-0.0056980113
202	0x3c9cb050	0.019127041
203	0xbda74b67	-0.08168679
204	0x3cc433a6	0.02395041
205	0x3da6df11	0.08148015
206	0x3c0ddb1a	0.008658195
207	0xbc78a8cd	-0.015176964
208	0xbc7a52bf	-0.015278517
209	0xbd11c0eb	-0.03558437
210	0x3da16352	0.07880272
211	0xbce04fad	-0.027381742
212	0x3d41d422	0.047321446
213	0xbd42871f	-0.047492143
214	0xbdb150ee	-0.08658014
215	0xbd034556	-0.032048546
216	0xbd602c63	-0.05472983
217	0xbdae7f89	-0.08520419
218	0x3d44afc2	0.04801918
219	0xbd22c0e0	-0.03973472
220	0xba8de68d	-0.0010826156
221	0xbd6c4373	-0.057681512
222	0x3d86c356	0.06580226
223	0x3da29b90	0.079398274
224	0x3cade377	0.021226628
225	0xbd71045e	-0.058842055
226	0xba58a0f8	-0.00082637323
227	0x3cab5537	0.020914657
228	0xbd4ea7d1	-0.05045301
229	0x3d618f47	0.05506828
230	0xbd73c85c	-0.05951725
231	0xbb53c175	-0.0032311354
232	0xbc52fcb4	-0.012877632
233	0x3d477617	0.048696604
234	0xbd389e7f	-0.04507303
235	0x3ce21691	0.027598651
236	0xbd03e8d3	-0.03220446
237	0x3d4c1e13	0.04983337
238	0x3d848315	0.064703144
239	0xbdab6b2c	-0.08370051
240	0xbda5307e	-0.0806589
241	0xbbbe3113	-0.00580419
242	0x3dac4f29	0.08413536
243	0xbd6a616a	-0.057221808
244	0x3ce91a00	0.02845478
245	0x3d506bc2	0.050884016
246	0xbc421174	-0.011844981
247	0x3ccd3674	0.02505038
248	0xbbd7fe12	-0.006591567
249	0xbc0a2795	-0.008432289
250	0x3c831355	0.01600043
251	0xbdaae1dd	-0.08343861
252	0x3d267ac6	0.04064443
253	0xbda68940	-0.08131647
254	0xbd06d1e2	-0.032915004
255	0xbd94623b	-0.072452985

lstm.weight_ih_l1 f4 [512, 128]
0	0x3e7a393e	0.24435899
1	0x3e1b9b16	0.1519588
2	0xbf4c073f	-0.79698557
3	0xbdb53ac7	-0.088491015
4	0x3e43340a	0.1906282
5	0x3ce1948c	0.027536653
6	0x3d87a4ed	0.06623254
7	0xbda4d0f1	-0.08047665
8	0x3e22c1f1	0.15894295
9	0xbe08d047	-0.13360702
10	0x3e14be84	0.14525801
11	0xbcde00ca	-0.027099986
12	0xbe86e24b	-0.26344523
13	0xbd058555	-0.03259786
14	0xbd1dbbaa	-0.03850905
15	0xbf0b72fb	-0.5447232
16	0xbd146979	-0.0362334
17	0x3d4ce293	0.050020766
18	0xbd47961c	-0.04872714
19	0x3d83f6ef	0.06443583
20	0xbea81d02	-0.3283463
21	0xbe738e9e	-0.23784873
22	0xbea42eab	-0.32066855
23	0x3e3a193b	0.18173687
24	0x3e3a4749	0.18191256
25	0x4047455a	3.113608
26	0x3ed092ba	0.40736943
27	0x3ec6e9b7	0.38850185
28	0xbd978890	-0.07399094
29	0xbfe6d9bc	-1.8035197
30	0x3d6b6e25	0.05747809
31	0xbe26bb3f	-0.16282366
32	0x3dfe7b44	0.12425855
33	0xbd856502	-0.06513406
34	0xbc97d707	-0.01853515
35	0xbdef0609	-0.11671073
36	0x3e50256f	0.2032678
37	0x3e155289	0.14582266
38	0xbe558e48	-0.20855057
39	0xbd21f09c	-0.039536104
40	0x3e2a8b18	0.16654623
41	0x3dc75a90	0.0973407
42	0x3e79b92b	0.24387042
43	0x3d9a127b	0.07523056
44	0x3d98a8cd	0.07454071
45	0x3db765b9	0.08954949
46	0x3ddefcd5	0.10888068
47	0xbd8058c3	-0.0626693
48	0xbeb430a9	-0.35193375
49	0x3e8d2c31	0.27572778
50	0xbdb3bd21	-0.08776308
51	0xbe30aa47	-0.17252456
52	0x39b36da8	0.0003422324
53	0xbe13ad2f	-0.14421533
54	0x3e306498	0.17225873
55	0xbc29bfb8	-0.010360651
56	0xbe591cba	-0.21202365
57	0xbe744061	-0.23852684
58	0x3db3ab0f	0.08772861
59	0xbece8c7e	-0.40341562
60	0xbe313f22	-0.1730924
61	0x3d96d2b4	0.07364407
62	0x3e47bd43	0.19505791
63	0xbd0382bc	-0.0321071
64	0x3dc676cf	0.0969063
65	0x3ee144bd	0.43997756
66	0x3db4cca4	0.088280946
67	0x3e0e1875	0.13876517
68	0xbf037eba	-0.51365244
69	0xbb09793c	-0.0020976802
70	0xbe976bc3	-0.29574403
71	0xbe0f329a	-0.13984147
72	0xbe540728	-0.20705855
73	0x3d252006	0.040313743
74	0x3e69d9a0	0.22836924
75	0xbe299891	-0.16562106
76	0xbdb26155	-0.08709971
77	0xbd4172ee	-0.047228746
78	0xbcc5430c	-0.024079822
79	0xbf2a0286	-0.664101
80	0x3e618714	0.22024184
81	0x3fda4e3f	1.7055129
82	0xbf1ed9ad	-0.62050897
83	0xbbcd0a4e	-0.006257332
84	0xbe7b48b4	-0.24539453
85	0xbeedb473	-0.46426734
86	0x3e83b40b	0.257233
87	0xbd815a91	-0.06316102
88	0xbe55bc63	-0.20872645
89	0x3e1584ac	0.14601392
90	0x3cc6c428	0.024263456
91	0x3e057156	0.13031515
92	0x3e3da5f8	0.18520343
93	0x3bfa1518	0.007631909
94	0x3cb44db3	0.022009706
95	0x3ddde197	0.108340435
96	0x3d2bcb16	0.041941725
97	0xbd1758f0	-0.03695005
98	0xbea084fe	-0.31351465
99	0x3e6f28fe	0.23355481
100	0x3d6dec03	0.058086406
101	0x3e22aac4	0.15885454
102	0x3d7ffd24	0.062497273
103	0xbe2b4ce2	-0.16728547
104	0xbc5e02ae	-0.013550444
105	0x3d91d60d	0.07120905
106	0xbe5992bf	-0.21247385
107	0x3c7cb8c1	0.015424908
108	0x3d8fde5a	0.07024832
109	0xbca6cb59	-0.020360636
110	0x3d79380c	0.060844466
111	0x3e02cf14	0.12774307
112	0xbe0ea717	-0.13930927
113	0x3da9e240	0.08295107
114	0xbe7f9d37	-0.24962316
115	0x3c19ed6d	0.009394986
116	0xbdae6763	-0.08515813
117	0x3db71446	0.08939414
118	0xbe164464	-0.14674526
119	0xbe668097	-0.2250999
120	0x3de7709d	0.11300776
121	0x3de6bc50	0.112663865
122	0xbed652c0	-0.41860008
123	0xbc4e5940	-0.012594521
124	0xbd50674e	-0.05087977
125	0xbde76bb1	-0.112998374
126	0x3dcd59f1	0.100269206
127	0x3e9c5398	0.30532527
128	0x3e40305c	0.18768448
129	0x3e81bf77	0.2534139
130	0xbf3238cd	-0.6961792
131	0xbe1dd433	-0.15412979
132	0x3e229756	0.15878043
133	0xbd87b2c6	-0.06625895
134	0xbd7a9917	-0.061181154
135	0x3d8ba8b1	0.06819285
136	0x3dee376e	0.11631666
137	0xbe572cf4	-0.21013242
138	0x3dd6d5aa	0.10489972
139	0xbd9dc821	-0.07704187
140	0xbe75da2c	-0.24009007
141	0x3cc0c2fe	0.02353048
142	0x3d6a20a2	0.057160027
143	0xbeebf67e	-0.46086496
144	0x3ba2dbea	0.0049700635
145	0x3d8a20b2	0.067445174
146	0x3cc8c7b9	0.024509298
147	0x3d20387b	0.039116364
148	0xbeaec742	-0.34136397
149	0xbea6c23a	-0.32570058
150	0xbe85a6d5	-0.26103845
151	0x3e6c578f	0.23080276
152	0x3e631992	0.22177723
153	0x4039af8b	2.9013393
154	0x3ec02dee	0.37535042
155	0x3e876c0d	0.26449624
156	0x3d878bf1	0.066184886
157	0xbfd6f509	-1.6793529
158	0xbdac8834	-0.08424416
159	0xbe8bff0f	-0.27343032
160	0x3ddbd076	0.1073312
161	0x3d0d754a	0.034535684
162	0xbd5dbd8f	-0.054135855
163	0xbe0327d4	-0.12808162
164	0x3df776dd	0.12083218
165	0x3e7ba129	0.24573196
166	0xbe8e5283	-0.27797326
167	0x3c725d59	0.014792764
168	0x3e7f16ef	0.24911092
169	0x3de64857	0.112442665
170	0x3e5f9e10	0.2183764
171	0x3d5d81ae	0.05407875
172	0xbd26f77a	-0.040763356
173	0xbdb19dd6	-0.08672683
174	0x3e537eaf	0.20653795
175	0xbcde1543	-0.027109748
176	0xbeba3ed2	-0.36376053
177	0x3e5fa643	0.21840768
178	0xbe3bdbd4	-0.18345577
179	0xbe23ecd7	-0.16008316
180	0xbd3cbe7c	-0.046080098
181	0xbe5215f7	-0.20516191
182	0x3e1f2b2f	0.15543817
183	0x3d92117b	0.071322404
184	0xbe145233	-0.14484482
185	0xbe35c14c	-0.17749518
186	0x3d27decd	0.040983964
187	0xbe9e030e	-0.30861706
188	0xbe926fdc	-0.28600967
189	0xbce7a7ad	-0.028278196
190	0x3df425e6	0.11921291
191	0x3d7b4e22	0.06135381
192	0x3e84da45	0.25947776
193	0x3e8e8a68	0.2783997
194	0xbd1fb975	-0.038995225
195	0x3e630d1c	0.2217297
196	0xbf0bad6f	-0.54561514
197	0x3cd21b89	0.025647895
198	0xbea7cd53	-0.32773837
199	0xbe30f184	-0.17279631
200	0xbe15320a	-0.1456987
201	0xbdae6e20	-0.085170984
202	0x3dfb1ed1	0.12261737
203	0xbe84613e	-0.2585544
204	0xbd696453	-0.056980442
205	0x3db41d43	0.08794644
206	0xbc7679bf	-0.015043675
207	0xbf2c8066	-0.6738342
208	0x3e1ec520	0.15504885
209	0x3fd86117	1.690463
210	0xbed2e49d	-0.41190043
211	0x3d5a72cf	0.053332146
212	0xbe8baabf	-0.27278706
213	0xbea25b48	-0.31710267
214	0x3e265234	0.16242296
215	0x3d4680bc	0.048462614
216	0xbe712d8f	-0.23552535
217	0x3e6ef2da	0.23334828
218	0xbd3f8b50	-0.046763718
219	0x3dfe6164	0.124209195
220	0x3de8a225	0.113590516
221	0xbda5e44f	-0.08100187
222	0x3c3cc11d	0.011520651
223	0x3e70891c	0.23489803
224	0xbcb7c38f	-0.022432117
225	0xbd9ddc98	-0.077080905
226	0xbeb1674d	-0.34649125
227	0x3e75ab01	0.23991014
228	0x3cde8e44	0.027167447
229	0x3e3de952	0.18546036
230	0xbc9b732c	-0.018975817
231	0xbe2814db	-0.16414206
232	0xbc88dab6	-0.016705852
233	0xbd0ec78e	-0.03485828
234	0xbe5efee1	-0.21776916
235	0xbd7ed4f8	-0.06221482
236	0xbd9f1631	-0.077679045
237	0xbcf0d8f3	-0.029400324
238	0xbb611ae7	-0.003434831
239	0x3e2227f8	0.1583556
240	0xbe569a2b	-0.20957248
241	0x3e7e2fed	0.2482297
242	0xbe85e6d7	-0.2615268
243	0xbb8ce9c2	-0.004300327
244	0xbe4b9dcb	-0.19884412
245	0x3e4b217c	0.19836992
246	0xbe1f420d	-0.1555254
247	0xbe0d6afb	-0.13810341
248	0x3e735200	0.2376175
249	0x3e20b08b	0.15692346
250	0xbee6be87	-0.45067236
251	0x3a1f9e49	0.0006088955
252	0xbc06ed23	-0.008235249
253	0xbe4c7159	-0.19965114
254	0x3e7e906e	0.24859783
255	0x3e6bd631	0.23030926

lstm.weight_hh_l1 f4 [512, 128]
0	0x3d1f0360	0.038821578
1	0xbd4aa0e6	-0.04946985
2	0xbd65e131	-0.056122962
3	0xbcff56ac	-0.031169258
4	0xbcedeb04	-0.029042728
5	0x3c59a08b	0.013282905
6	0x3d87d9f4	0.06633368
7	0xbd8c76fd	-0.06858633
8	0xbd04a74a	-0.0323861
9	0x3cd0acae	0.025472965
10	0xbdb4343e	-0.08799027
11	0x3d86c1ac	0.06579909
12	0x3d3a1968	0.045434386
13	0x3cff260a	0.031146068
14	0x3d4f3b40	0.050593615
15	0x3cebe56a	0.028795917
16	0xbc51ca43	-0.012804571
17	0x3d0ee15a	0.03488288
18	0xbda48f3a	-0.08035131
19	0xbb9ed5d2	-0.0048472667
20	0xbd578963	-0.052621257
21	0x3d9735df	0.07383322
22	0x3d81c8ee	0.063371524
23	0x3d7283b8	0.059207648
24	0xbc0c5c62	-0.008566948
25	0x3d0cd2a2	0.034380563
26	0xbd734107	-0.059388187
27	0x3c4e9ad6	0.012610158
28	0x3c828666	0.015933227
29	0xbdabf831	-0.08396948
30	0x3da0b9d7	0.07847946
31	0xbd6fca34	-0.058542445
32	0x3c6b1745	0.01434881
33	0x3c216018	0.009849571
34	0x3cfcf87c	0.030880205
35	0xbc93f96f	-0.018063275
36	0x3c0cc454	0.00859173
37	0xbd85a40c	-0.0652543
38	0xbd87f0ec	-0.06637749
39	0xbd3f60e6	-0.04672327
40	0xbda4c416	-0.08045213
41	0x3cd728ec	0.02626463
42	0x3c44645a	0.011986816
43	0x3d6d0b4e	0.05787211
44	0x3cb44d74	0.022009589
45	0x3b1227ac	0.0022301478
46	0x3d84d59b	0.064860545
47	0x3b8cb1b9	0.004293647
48	0xbd073554	-0.033009842
49	0xbc88a8d6	-0.01668207
50	0xbda0ab7f	-0.0784521
51	0xbd48e34d	-0.049044896
52	0xbcab251c	-0.020891719
53	0xbdad811b	-0.084718905
54	0xbc721019	-0.014774346
55	0x3c98d92b	0.018658241
56	0x3aa59a3c	0.0012634466
57	0x3d681ddf	0.056669112
58	0xbd533023	-0.05155958
59	0x3da82442	0.08210041
60	0x3ced039e	0.028932389
61	0x3da1f31a	0.07907696
62	0xbd9764a8	-0.073922455
63	0x3d76d715	0.060263712
64	0x3da00f8d	0.07815466
65	0xbd87a309	-0.06622893
66	0xbcf835fc	-0.03029918
67	0x3d6d4268	0.057924658
68	0xbd62c69d	-0.055365194
69	0x3ca9f3ed	0.020746196
70	0x3d234400	0.03985977
71	0x3dafc5f4	0.085826784
72	0xbd4901c9	-0.049073968
73	0x3cf96336	0.030442815
74	0xbd86fcde	-0.06591199
75	0xbd397208	-0.045274764
76	0xbd924a24	-0.071430475
77	0xbd2324da	-0.039830066
78	0xb9b6aea1	-0.00034843854
79	0x3da2cebf	0.0794959
80	0x3d2b8752	0.0418771
81	0xbd0e97b9	-0.034812663
82	0x3d7f3179	0.06230304
83	0x3b801cf0	0.0039096996
84	0x3d7979cc	0.06090717
85	0x3d4d86e0	0.050177455
86	0x3c50f90c	0.01275469
87	0x3ced9460	0.029001415
88	0xbda55b1a	-0.08074017
89	0x3d9161e5	0.0709875
90	0xbd07dc4e	-0.033169083
91	0x3d92cd9a	0.07168122
92	0x3d89959e	0.0671799
93	0x3cfb7f71	0.030700417
94	0xbcf7e4b6	-0.030260425
95	0x3da67e45	0.08129553
96	0xbd127788	-0.035758525
97	0xbd80047e	-0.06250857
98	0x3d21e06c	0.039520666
99	0xbd66d9b2	-0.056359954
100	0xbda33006	-0.07968144
101	0x3aba69ee	0.0014222243
102	0x3da71d9c	0.081599444
103	0xbd73a22d	-0.059480835
104	0x3d96204f	0.07330381
105	0x3b96952a	0.0045954185
106	0xbd9fbeee	-0.07800089
107	0x3d93a151	0.07208503
108	0x3d6942ca	0.05694846
109	0x3b4760e9	0.0030422753
110	0xbd342b75	-0.043986756
111	0x3d8fe423	0.070259355
112	0x3da4fe5e	0.08056329
113	0x3d26e608	0.04074672
114	0x3d76ee51	0.06028587
115	0x3d939e37	0.072079115
116	0xbd958ae7	-0.07301884
117	0xbd1f5de8	-0.038907915
118	0x3d82ac17	0.0638048
119	0xbd3b97c4	-0.04579903
120	0xbc08d743	-0.008352104
121	0x3d749eef	0.059721883
122	0x3daba928	0.08381873
123	0x3da10d84	0.07863906
124	0xbd4671fd	-0.04844855
125	0xbd831c92	-0.06401934
126	0x3d86c538	0.06580585
127	0x3c5cc1f6	0.013473978
128	0x3d83d774	0.06437579
129	0xbbd75b59	-0.006572169
130	0xbbff1566	-0.0077845333
131	0xbdb48549	-0.088144846
132	0xbd8ce68b	-0.0687991
133	0xbda4f628	-0.08054763
134	0x3da0d387	0.07852846
135	0xbcd26f48	-0.025687829
136	0xbd99f226	-0.07516889
137	0xbd4fde94	-0.050749376
138	0xbd8f0fd1	-0.069854386
139	0xbd83bd61	-0.064326055
140	0x3d0ec14a	0.034852304
141	0x3d6af724	0.057364598
142	0x3dae3c4e	0.08507596
143	0x3d147188	0.036241084
144	0xbd32d4f4	-0.04366012
145	0xbc32fae2	-0.010924073
146	0xb9fc002e	-0.0004806532
147	0x3d5db18d	0.054124404
148	0xbdb17e58	-0.08666676
149	0x3da0237a	0.078192666
150	0x3c3d63d6	0.011559447
151	0xbd0f6ae8	-0.035014063
152	0x3d38a6e5	0.045081038
153	0xbbc98847	-0.0061502787
154	0xbdb48525	-0.08814458
155	0xbd34abb9	-0.04410908
156	0xbd76daac	-0.060267136
157	0x3d2bf93e	0.041985743
158	0xbd155130	-0.03645438
159	0x3da55b92	0.08074106
160	0x3dab7d2f	0.08373486
161	0x3cef408d	0.029205585
162	0x3d56f2af	0.052477535
163	0x3c720d39	0.01477366
164	0xbda0ea17	-0.07857149
165	0x3d081179	0.03321979
166	0x3b836b58	0.004010599
167	0xbd7ad0b3	-0.061234187
168	0x3ca63df9	0.020293223
169	0x3dabb0e2	0.08383347
170	0xbd994f10	-0.07485783
171	0x3d8cfc77	0.06884091
172	0xbd4cb71e	-0.04997932
173	0xbd1162eb	-0.035494726
174	0xbd1e9e2e	-0.03872507
175	0xbc1f675a	-0.009729231
176	0xbd5e0588	-0.054204494
177	0xbd63ef0f	-0.055647906
178	0x3d4a0afb	0.049326878
179	0xbd89bf9d	-0.067260005
180	0xbbaee085	-0.0053368234
181	0x3d396e69	0.04527131
182	0x3c6a663b	0.0143066
183	0xbcf9a9ec	-0.030476533
184	0xbd1ab6a7	-0.037771847
185	0x3c160846	0.009157246
186	0xbcbc447c	-0.022981875
187	0xbc127382	-0.008938672
188	0xbca997b1	-0.020702215
189	0x3d097af2	0.033564515
190	0xbd3ba0e1	-0.045807723
191	0x3a9f7382	0.0012165161
192	0xbc9686d8	-0.018374845
193	0xbbfdafc7	-0.0077419016
194	0xbd82ce61	-0.0638702
195	0xbdb12f79	-0.08651633
196	0x3d85748f	0.065163724
197	0x3d2a0074	0.04150434
198	0x3da6fd1d	0.08153746
199	0x39d3ba90	0.00040384056
200	0xbd92755a	-0.07151289
201	0x3db209db	0.08693286
202	0x3d8cba2f	0.06871449
203	0xbd3077ed	-0.04308312
204	0x3d8f4123	0.06994846
205	0x3d8ed0ca	0.06973417
206	0x3d93df25	0.07220296
207	0xbcb82488	-0.022478357
208	0x3c90276b	0.017596921
209	0x3b89a7e7	0.0042009237
210	0xbc8094b4	-0.015695907
211	0x3d47e450	0.04880172
212	0x3d4f1590	0.050557673
213	0xbaaa8a30	-0.0013011154
214	0x3c76dfe1	0.015068025
215	0x3d123573	0.035695504
216	0x3c9e5866	0.019329261
217	0x3da5ad0f	0.08089649
218	0xbbc6abb7	-0.0060629505
219	0xbd024963	-0.03180827
220	0xbc489169	-0.0122417
221	0x3d5354a1	0.05159438
222	0xbd4fffba	-0.05078099
223	0x3dad25d8	0.08454484
224	0xbd8bc94e	-0.06825505
225	0xbb9afd16	-0.004729877
226	0x3c593549	0.013257333
227	0xbd959924	-0.073046
228	0xbbb3e37a	-0.005489764
229	0x3d9d84e3	0.07691362
230	0xbcb2a6f0	-0.021808118
231	0xbacb6b3b	-0.0015519628
232	0x3d48cc85	0.04902317
233	0x3bcc9be8	0.0062441714
234	0x3d4ea045	0.050445814
235	0x3ca07583	0.019587284
236	0x3ca87def	0.020567862
237	0xbd88cfe3	-0.06680276
238	0x3d61590d	0.055016566
239	0x3c3ff501	0.011716128
240	0xbd97f739	-0.07420201
241	0x3c806e80	0.01567769
242	0xbd99bc30	-0.07506597
243	0x3d32a0ea	0.04361049
244	0xbd60eeaa	-0.054915108
245	0xbd283aae	-0.041071586
246	0xbd98913e	-0.07449578
247	0xbcb91b56	-0.022596043
248	0xbc034b64	-0.00801358
249	0xbd04334d	-0.032275487
250	0x3c143ee8	0.009048201
251	0x3ce6b6fe	0.02816343
252	0x3d45503a	0.048172213
253	0x3d0c5b0e	0.034266524
254	0x3d95f8a9	0.07322819
255	0x3c3019a3	0.0107483

lstm.bias_ih_l1 f4 [512]
0	0x3e4af42f	0.19819711
1	0x3e39be34	0.18138963
2	0x3e5bce7c	0.21465486
3	0x3d8ac904	0.06776622
4	0x3e0c6356	0.13709769
5	0x3dee3629	0.11631424
6	0x3de9f3bb	0.11423441
7	0x3dc9846b	0.0983971
8	0x3dcc83ef	0.09986102
9	0x3e54ac06	0.20768747
10	0x3d811cba	0.06304307
11	0x3e14e4a8	0.1454035
12	0x3e52529d	0.20539327
13	0x3e1ce9a6	0.15323505
14	0x3e392730	0.18081355
15	0x3e550ca0	0.20805597
16	0x3e357011	0.17718531
17	0x3e17b3bc	0.14814657
18	0x3e125f9e	0.14294288
19	0x3da040ec	0.07824883
20	0x3df4cdb6	0.11953299
21	0x3e4bd02e	0.19903633
22	0x3e302795	0.172026
23	0x3de236e9	0.110456295
24	0x3e5ed603	0.21761326
25	0x3e7ecd64	0.24883038
26	0x3e2bad7d	0.167654
27	0x3e0ee3f3	0.13954143
28	0x3defbbdd	0.11705754
29	0x3e56dcfd	0.20982738
30	0x3e480c7f	0.19536017
31	0x3e2547c7	0.16140662
32	0x3e140b39	0.14457406
33	0x3e2b223b	0.16712277
34	0x3e545574	0.20735723
35	0x3e627d21	0.22118045
36	0x3e877fc4	0.26464665
37	0x3e689638	0.22713554
38	0x3e2db331	0.16962887
39	0x3e50d7a9	0.20394768
40	0x3de3f90d	0.11131487
41	0x3e39ac07	0.1813203
42	0x3dffe66e	0.12495123
43	0x3e63c620	0.22243547
44	0x3e2b873e	0.1675081
45	0x3e3fc3f9	0.18727101
46	0x3e3f86ae	0.1870372
47	0x3dc7c8b9	0.09755082
48	0x3e1b7380	0.15180779
49	0x3e0e4a71	0.13895585
50	0x3df3375c	0.11875793
51	0x3e3d82b5	0.18506892
52	0x3e642860	0.22281027
53	0x3e0f8e73	0.14019184
54	0x3e5a7408	0.21333325
55	0x3dfece4f	0.12441694
56	0x3e45da5d	0.1932158
57	0x3e6ee978	0.23331249
58	0x3e78b9b3	0.24289589
59	0x3e31d7c8	0.1736747
60	0x3e003fe4	0.12524372
61	0x3dce9c96	0.1008846
62	0x3e30e605	0.17275245
63	0x3e3e846f	0.18605207
64	0x3e4541a4	0.19263321
65	0x3da1e46e	0.07904898
66	0x3e720cbf	0.23637675
67	0x3e56ff8c	0.20995921
68	0x3e438db4	0.19097024
69	0x3e759417	0.23982273
70	0x3e591ab4	0.21201593
71	0x3e1e7095	0.15472634
72	0x3e0a4446	0.13502607
73	0x3e73595d	0.23764558
74	0x3dc6fc22	0.09716059
75	0x3e4b5d32	0.1985977
76	0x3e23e900	0.16006851
77	0x3e2b1016	0.16705355
78	0x3dde60a6	0.10858278
79	0x3e38f83f	0.18063448
80	0x3deedb02	0.11662866
81	0x3e44cd66	0.19218978
82	0x3e1971ac	0.14984769
83	0x3dba57df	0.09098791
84	0x3e663fe4	0.2248531
85	0x3dbbfeca	0.091794565
86	0x3e32fe17	0.1747974
87	0x3e3d9f9a	0.18517914
88	0x3e6c66d4	0.23086101
89	0x3e2ead88	0.17058384
90	0x3e25a842	0.16177467
91	0x3e48e84a	0.19619861
92	0x3dc2d87e	0.09513949
93	0x3ddf7fce	0.10913049
94	0x3e3401b7	0.17578779
95	0x3e4aa225	0.19788416
96	0x3e7fa280	0.24964333
97	0x3e4d3d24	0.20042855
98	0x3e569514	0.20955306
99	0x3dfb6d81	0.122767456
100	0x3e1342f7	0.14381014
101	0x3e20c6a2	0.15700772
102	0x3d935c7c	0.07195374
103	0x3e223097	0.15838848
104	0x3e0e751a	0.13911858
105	0x3dc57077	0.096405916
106	0x3e571054	0.21002322
107	0x3df21588	0.11820513
108	0x3e6f68bb	0.23379795
109	0x3e0b7cb9	0.13621797
110	0x3e69bd47	0.2282611
111	0x3e554974	0.20828801
112	0x3e1b0901	0.15140153
113	0x3df2f7d3	0.11863675
114	0x3dbd368f	0.09238922
115	0x3dd5df9b	0.1044304
116	0x3e6a2947	0.22867309
117	0x3e800d73	0.2501026
118	0x3e0e7c20	0.13914537
119	0x3e8a9534	0.27066958
120	0x3e48668a	0.19570366
121	0x3e0f1181	0.13971521
122	0x3e726598	0.23671567
123	0x3e0304f0	0.12794852
124	0x3dbc50d0	0.09195101
125	0x3e67fd64	0.22655255
126	0x3e50f333	0.20405273
127	0x3e496744	0.19668299
128	0x3d709d13	0.058743548
129	0x39c5a451	0.00037697193
130	0x3cf56ce9	0.029959159
131	0x3c57252a	0.013131419
132	0x3db1df7e	0.08685206
133	0x3dabbb79	0.08385367
134	0xbd8ff676	-0.070294306
135	0xbd82593e	-0.06364678
136	0x3d763a70	0.060114324
137	0x3d3a88b9	0.045540545
138	0xbd98f565	-0.0746868
139	0x3db06e99	0.08614845
140	0x3d127807	0.035759
141	0x3d444176	0.04791399
142	0x3d749273	0.059709977
143	0x3d1b348a	0.037891902
144	0x3d9ddd4c	0.07708225
145	0xbcf267c7	-0.0295905
146	0x3d3fd2c9	0.04683188
147	0xbc24fc05	-0.010069852
148	0xbd895f96	-0.06707685
149	0x3c308a33	0.010775137
150	0xbd8a7cf7	-0.067621164
151	0xbd6c3606	-0.05766871
152	0xbc4fa0af	-0.012672587
153	0xbdb43bae	-0.088004455
154	0x3cd13674	0.02553866
155	0xbd99d5f4	-0.075115114
156	0x3c5ffab7	0.013670615
157	0xbccac7c2	-0.024753455
158	0x3d9c429f	0.076298945
159	0x3da0f5bf	0.07859372
160	0x3c0f9396	0.008763215
161	0x3cb212d8	0.021737501
162	0xbd6ebcaa	-0.058285393
163	0x3cd40036	0.025879007
164	0xbcb4d9d1	-0.02207652
165	0xbaf61862	-0.0018775577
166	0xbd9b85b8	-0.07593864
167	0xbd752628	-0.05985084
168	0xbbca41ce	-0.0061723953
169	0x3d5f4149	0.05450562
170	0xbcb1176c	-0.021617614
171	0xbd4aeb77	-0.049540963
172	0x3c1a6d3c	0.009425458
173	0x3cccf922	0.02502114
174	0xbd3772fe	-0.0447874
175	0x3ca0fe0d	0.01965239
176	0x3d57e706	0.052710555
177	0x3d7a469a	0.061102487
178	0x3ca23eb3	0.019805288
179	0x3dad799c	0.08470461
180	0x3d96c8f5	0.07362548
181	0x3aada061	0.0013246649
182	0x3d0b08bd	0.03394388
183	0x3ca5e4e0	0.020250738
184	0x3d54e145	0.051972646
185	0x3c7ed1bd	0.015552935
186	0x3d62540b	0.05525593
187	0xbd51860c	-0.051153228
188	0x3d5fe268	0.054659277
189	0x3db2dd4e	0.08733617
190	0xbb50be89	-0.003185185
191	0xbd3e5f61	-0.04647768
192	0xbcebb692	-0.02877358
193	0xbd97f350	-0.07419455
194	0xbc01b2d1	-0.007916168
195	0xbd195993	-0.03743894
196	0xbd8edcde	-0.06975721
197	0x3da79813	0.08183303
198	0x3db0716b	0.08615383
199	0x3d8ec3e3	0.06970956
200	0x3c584cea	0.0132019315
201	0x3cd5de59	0.026107
202	0x3d499532	0.04921455
203	0x3d4ea511	0.05045039
204	0xbd79a54b	-0.06094865
205	0xbd9db395	-0.07700268
206	0x3d2d9579	0.042378876
207	0xbd8c5183	-0.068514846
208	0x3d7c9e49	0.06167439
209	0xbd0cbfe0	-0.034362674
210	0xbd5714e4	-0.052510157
211	0xbd2568e1	-0.040383223
212	0x3db36486	0.08759408
213	0xbd62f708	-0.05541137
214	0x3db29dd5	0.0872151
215	0xbd340d1f	-0.043957826
216	0x3caf837d	0.021425003
217	0x3d62720f	0.055284556
218	0x3d770b8b	0.060313743
219	0xbd0ffdbb	-0.035154086
220	0x3cc18fc4	0.023628123
221	0xbcf3b068	-0.029747203
222	0x3cd1b7ae	0.02560028
223	0xbca05b4e	-0.019574787
224	0x3c8b3316	0.016992133
225	0x3d6de044	0.058075204
226	0x3d438a2d	0.047739197
227	0xbd15561a	-0.036459066
228	0x3ce03715	0.027370015
229	0xbda9419a	-0.08264466
230	0x3c52d84a	0.01286895
231	0x3d96ff06	0.073728606
232	0xbd822ab9	-0.06355805
233	0xbcec4b43	-0.028844481
234	0xbcc54613	-0.024081266
235	0x3d2a1ba0	0.04153025
236	0xbd1e6416	-0.03866967
237	0xbd811bb6	-0.063041136
238	0x3d0b02e5	0.033938307
239	0x3d5d003b	0.053955298
240	0xbda9dea8	-0.082944214
241	0x3d4d1d3b	0.050076704
242	0x3d60443e	0.05475258
243	0x3b6a22ca	0.0035726302
244	0xbd1e76f8	-0.038687676
245	0xbd80445a	-0.06263037
246	0x3d57c7ca	0.052680768
247	0xbc59e68c	-0.013299596
248	0xbd5a5717	-0.05330571
249	0x3c9d6e75	0.01921771
250	0x3db4a46c	0.088204235
251	0x3d9c1978	0.07622045
252	0xbd7c5e56	-0.061613403
253	0x3da897c4	0.08232072
254	0x3d62a4eb	0.05533306
255	0xbd025144	-0.031815782
